assets/liveness.tflite (tflite, 599360 bytes, 22 tensors)

sequential/batch_normalization_4/batchnorm/mul f4 [64]
000000 cd 4d ef 3e cb a0 b7 41 52 a5 02 3f 1c 17 ba 41
       0.46739045 22.953512 0.5103351 23.261284
000010 59 72 d3 3e 58 32 fa 3e b2 be 34 3f 60 0a ac 3f
       0.41298178 0.48866534 0.7060348 1.3440666
000020 ec 30 e3 41 a2 70 92 3f bb d9 f5 3e 46 c9 26 3f
       28.398888 1.1440623 0.48017678 0.6515087
000030 27 7c 80 3f 5e 9d 12 3f cc 35 33 3f c7 ab 42 3f
       1.0037888 0.57271373 0.7000396 0.7604336
000040 12 ef c8 3e 97 32 42 3f 96 6d 25 3f 7f 77 c9 41
       0.39244896 0.75858444 0.6462034 25.183348
000050 d7 d1 49 3f 97 75 ea 3e 85 97 e5 3e ec 6b ec 41
       0.78835815 0.4579284 0.44842163 29.552696
000060 b5 23 0d 3f 4b 73 51 3f ea 64 d8 3f 92 95 df 3e
       0.5513261 0.8181655 1.6905797 0.436688
000070 e9 c8 1c 3f 0a e9 e1 3e 21 ea 01 41 5d de 1c 3f
       0.61244065 0.44123107 8.11966 0.612768
000080 1a b3 07 3f 93 7c af 3f 76 ea 1d 3f ed 67 0b 3f
       0.5300766 1.3709892 0.61685884 0.54455453
000090 46 fb 52 41 65 e9 c7 3e de 26 74 41 18 69 db 3e
       13.186346 0.39045253 15.259489 0.42853618
0000a0 01 28 f7 40 7c 1e 25 3f 43 91 0a 3f 05 63 f4 3e
       7.7236333 0.6449964 0.541279 0.47731796
0000b0 fe 04 8f 41 1f 7c cd 3e 2e d4 1d 3f 95 f6 c2 3e
       17.877438 0.4013376 0.61651886 0.38078752
0000c0 86 10 d6 3e 66 6e f5 3e fb a0 2d 3f 23 7a 08 3f
       0.4180948 0.4793579 0.6782376 0.53311366
0000d0 ec a1 0d 40 5a 4d 9c 40 0b 04 fb 41 7d 68 5a 3f
       2.213008 4.8844423 31.376974 0.85315686
0000e0 14 13 10 3f c8 5d 77 41 a6 05 ed 3e 80 0b e9 3e
       0.5627911 15.460396 0.46293372 0.45516586
0000f0 22 68 23 3f 6f c5 01 3f 1a ac 6f 3f d0 df 03 3f
       0.6383077 0.50691885 0.9362198 0.51513386

sequential/batch_normalization_4/batchnorm/sub f4 [64]
000000 f0 cc c5 bf 3a 76 8d bc 29 fb ac bf d1 78 f4 bc
       -1.5453167 -0.017268289 -1.3514148 -0.029842766
000010 4d ae e1 bf 3d 84 af bf f7 b5 62 bf d9 c6 e6 be
       -1.7631317 -1.3712231 -0.88558906 -0.45073584
000020 24 90 20 bc f1 d6 17 bf e5 1d d0 bf 11 7a a3 bf
       -0.009799991 -0.5931235 -1.6259123 -1.2771627
000030 b2 c4 1f bf 88 64 8f bf 7d be 71 bf 19 34 5e bf
       -0.6240951 -1.1202555 -0.9443129 -0.86798245
000040 c8 b5 fe bf b2 3f 6b bf c2 4d 80 bf 04 f3 09 bc
       -1.9899225 -0.91894066 -1.002373 -0.008419756
000050 66 a2 7c bf 0f aa 0c c0 66 c2 c4 bf 26 a5 cd ba
       -0.986853 -2.1978796 -1.5371826 -0.0015689477
000060 4d 35 8f bf a6 1d 42 bf 75 4e dc be 10 b7 e5 bf
       -1.1188141 -0.7582649 -0.43028608 -1.7946491
000070 20 ef 94 bf 6b 96 f2 bf 65 93 b1 bd 07 e4 98 bf
       -1.1635475 -1.8952154 -0.086706914 -1.1944588
000080 14 a2 a4 bf b6 8b ea be 59 3d 41 bf 00 1b 9c bf
       -1.2861962 -0.45809716 -0.75484234 -1.219574
000090 f0 89 8b bd d9 4d d4 bf 37 5f 80 bd d8 ca ce bf
       -0.06813419 -1.6586257 -0.06268161 -1.6155653
0000a0 b7 11 06 be 59 50 68 bf 7e 50 91 bf 11 01 93 bf
       -0.13092695 -0.907476 -1.1352689 -1.14847
0000b0 56 c4 23 bd 53 93 e3 bf 26 9e 6d bf ee 1d 01 c0
       -0.039982162 -1.7779335 -0.9281944 -2.0174518
0000c0 09 54 fb bf 9f 9b cc bf 68 e3 91 bf e7 de 63 bf
       -1.963502 -1.5984992 -1.1397524 -0.89011997
0000d0 82 d0 98 be ef 9e 23 be a6 46 4a 3b 23 af 28 bf
       -0.2984658 -0.15978597 0.0030864864 -0.6589224
0000e0 3d fa 52 bf ed 3b a0 bd cc 68 9f bf f1 2a f6 bf
       -0.82413083 -0.0782393 -1.2453856 -1.9231855
0000f0 94 e4 81 bf 3f e4 d8 bf fd f4 37 bf f6 ff af bf
       -1.0147882 -1.6944655 -0.718582 -1.3749988

sequential/conv2d/BiasAdd/ReadVariableOp f4 [16]
000000 9f f4 68 3a 79 f7 df 3a 04 b7 ef bb a7 e6 5f 3a
       0.0008886549 0.0017087302 -0.0073155183 0.0008541145
000010 8c f9 71 ba ae f4 10 3a 4e 75 48 ba e5 cf 91 3b
       -0.0009230606 0.0005529624 -0.00076468743 0.004449832
000020 19 b1 ad 3b a2 c6 89 3a e6 db d7 ba 73 e8 99 bb
       0.0053006527 0.0010511468 -0.0016468733 -0.0046968996
000030 bb d6 86 bb 11 66 b9 bb 7d 1a 35 ba 31 aa 10 3c
       -0.0041149533 -0.005657919 -0.0006908549 0.008829639

sequential/conv2d_1/BiasAdd/ReadVariableOp f4 [16]
000000 f0 27 c4 39 4f 9b 52 bb 24 d0 b5 3a 10 ea 79 3b
       0.0003741379 -0.0032136028 0.0013871235 0.0038133897
000010 c3 68 46 3b 78 0d 83 39 c5 b7 cf 3c 38 94 de bb
       0.0030274845 0.00024996302 0.025356183 -0.0067925714
000020 cd 6c 02 3b 37 91 02 3c 42 0c 32 3b 69 a6 08 ba
       0.0019901276 0.007969192 0.002716795 -0.00052127853
000030 10 a9 3a 3b 5f 9a 6d bb c5 3d b1 3b d0 42 4b ba
       0.0028482117 -0.0036255342 0.005408975 -0.0007753791

sequential/conv2d_2/BiasAdd/ReadVariableOp f4 [32]
000000 9d 9d ab 3b 4b e0 e5 3a db 35 8a 3a 5b eb 79 3b
       0.005237295 0.0017538158 0.0010544615 0.0038134668
000010 f1 e6 8f b9 30 cc 75 3a ce 6f ec 3a da 5e 85 3b
       -0.0002744715 0.00093764346 0.0018038691 0.004070145
000020 5c 91 c7 39 ef 00 93 ba 3a 48 c4 3a 00 c2 5e 3c
       0.0003806454 -0.0011215488 0.0014975138 0.013596058
000030 41 be 32 3b 94 db 02 bb a1 6d 65 3b f9 0e 80 3b
       0.0027274045 -0.0019967305 0.003500797 0.003908035
000040 40 ea 9d bb bc f2 b6 3b e2 61 4c 3b e5 31 f8 ba
       -0.0048191845 0.0055831354 0.0031186272 -0.0018935768
000050 c8 79 41 3b df 32 65 3b b7 0e 76 bb 4b da 5f bb
       0.002952205 0.0034972948 -0.0037545392 -0.0034157212
000060 67 0e fe ba dc 26 d4 3b 88 51 05 3b 34 8f 9f ba
       -0.0019382954 0.006474359 0.0020342786 -0.0012173415
000070 93 33 da 3b a2 dd a4 3b 32 3b 29 3b 47 56 75 bb
       0.00665898 0.0050313035 0.0025822637 -0.0037435459

sequential/conv2d_3/BiasAdd/ReadVariableOp f4 [32]
000000 92 8a 8b 3a e1 ac 1d 3b a8 ec 9f 3b 85 63 b1 bb
       0.0010646156 0.0024059343 0.0048805065 -0.005413475
000010 7d 73 51 ba 0d ab 24 bb 17 5a 17 3c 29 5c 44 3b
       -0.00079899264 -0.0025126368 0.009237788 0.0029962158
000020 3c dd ad 3a e4 6e c2 3b db 52 87 3a 90 ce 03 3c
       0.0013264786 0.0059336293 0.0010324375 0.008044854
000030 f4 15 96 bb 25 a5 cb 39 9d f6 31 bc 65 d5 64 39
       -0.0045802537 0.0003884222 -0.01086202 0.0002182327
000040 f0 a1 22 bc 4f 40 14 3c 9a e0 f4 3a 6d 21 0e bb
       -0.009926304 0.0090485355 0.0018682659 -0.0021687404
000050 22 af 0c 3c fc 5a 2d 3b e3 a3 66 bb 85 73 5c 3b
       0.008586677 0.0026451936 -0.00351929 0.003363819
000060 cc cb 75 3a c1 3c a1 3b 7e 7d b7 3b 71 df 01 3b
       0.00093763764 0.0049205725 0.0055996766 0.001981702
000070 72 a4 24 ba 8a 74 6b bb e0 d4 f6 ba e4 e3 86 3a
       -0.0006280608 -0.0035927617 -0.0018831752 0.0010291305

sequential/dense/BiasAdd/ReadVariableOp f4 [64]
000000 3b 06 b6 b8 a6 95 b9 bb ed d7 42 3b 50 72 ba bb
       -8.679597e-05 -0.0056635914 0.0029730753 -0.0056898966
000010 e3 b4 3f 3b f1 01 13 3a f5 af 25 3b 29 db e9 ba
       0.0029252104 0.0005607894 0.002528188 -0.0017841804
000020 d5 27 af bb 77 a5 4e 3a 0b 33 0f 3b 12 8b b9 3b
       -0.0053453245 0.00078829326 0.0021850492 0.0056623304
000030 dd ed 96 bb e1 07 db 3a 47 7d b8 3b f3 62 ab ba
       -0.004605992 0.0016710722 0.0056301686 -0.0013075754
000040 3d 83 23 bb 47 66 a8 3b b4 5f a6 3b 21 fb c0 bb
       -0.002495005 0.0051391455 0.0050773267 -0.005889312
000050 b3 bb 05 3c 15 2e a3 3a 5c 62 8e 3a bc 55 b4 bb
       0.008162427 0.0012449647 0.0010863054 -0.0055033844
000060 28 ec 85 bb 9f 22 95 3a 0f cf 2d ba 5e bf d0 37
       -0.00408699 0.0011378116 -0.00066302804 2.4884645e-05
000070 c4 13 af 3b 2f 8a d7 ba e2 9f e1 bb 2e cb c7 3b
       0.0053429324 -0.001644438 -0.0068855146 0.006097219
000080 c3 ca 0a 3c 28 e7 66 39 4a b1 79 3b 94 f2 a3 3b
       0.008471194 0.00022020622 0.0038100057 0.005003283
000090 ab f8 85 bb b7 1d 91 ba e2 d9 cd bb c4 b5 80 3a
       -0.0040884814 -0.0011071478 -0.006282077 0.0009819795
0000a0 41 6c 7d bb 1f 51 9b 3b 54 f8 eb ba 83 b9 41 3a
       -0.003866926 0.004739895 -0.0018003085 0.0007390009
0000b0 06 1d 47 bb b3 71 13 bb d4 38 ff 3b 3c 7e de 3a
       -0.003038229 -0.002249819 0.007788757 0.0016974877
0000c0 b5 6b a5 3a 94 2a 5f ba 26 a2 b6 3b 69 50 06 39
       0.00126206 -0.00085131195 0.005573529 0.00012809191
0000d0 b9 be 0f bb a0 91 99 ba 63 48 e7 bb 69 67 67 3b
       -0.0021933748 -0.0011716373 -0.0070581897 0.003530944
0000e0 4a 3c b2 b7 c6 9e 54 bb 42 c2 92 bb 93 04 bd 3b
       -2.1247328e-05 -0.003244327 -0.0044787237 0.0057683676
0000f0 69 47 21 3b 95 f8 54 3c 5c 41 12 3b d9 1b 33 3c
       0.0024609214 0.01299872 0.002231679 0.010931932

sequential/dense_1/BiasAdd/ReadVariableOp f4 [2]
000000 20 7e b8 bb 86 7d b8 3b
       -0.0056302696 0.005630198

sequential/batch_normalization/FusedBatchNormV3 f4 [16]
000000 ad 09 1a 41 c8 ca 81 41 16 e8 fa 41 f2 6e c1 40
       9.627362 16.224014 31.363323 6.044793
000010 fc 6d fd 41 d8 3c b4 41 ea df fc 41 98 d3 c1 41
       31.678703 22.529709 31.609333 24.228317
000020 4f b2 6d 41 4b 0e 5d 40 0d 40 fc 41 b2 22 fc 41
       14.856032 3.4539974 31.531275 31.516941
000030 7e 12 fc 41 c1 5c fc 41 bc 12 a9 41 b7 ee 1c 41
       31.50903 31.54529 21.134148 9.80828

sequential/batch_normalization/FusedBatchNormV31 f4 [16]
000000 bf ae 7b be 71 c5 55 bf 22 b3 3f ba 95 26 f5 bf
       -0.24578379 -0.83504397 -0.00073127646 -1.9152399
000010 5e 91 2b 3c dc 37 40 be c2 6f da 3b c5 be 9a bf
       0.01047167 -0.18771309 0.0066661546 -1.2089468
000020 10 9a 95 bf bb 7c 14 c0 d8 77 92 3a ad 4a 51 bc
       -1.1687641 -2.320113 0.0011174632 -0.012774152
000030 be 9e e6 bb a6 5d 32 ba 08 33 3f bf 68 3a b0 bf
       -0.0070379665 -0.0006804116 -0.7468724 -1.3767824

sequential/batch_normalization_1/FusedBatchNormV3 f4 [16]
000000 a8 13 6c 40 95 1d 2d 40 a5 15 2b 40 e9 ae 34 40
       3.6886997 2.7049305 2.673196 2.8231757
000010 85 bd 36 40 6d 78 4a 40 2a a1 85 40 34 90 2e 40
       2.8553174 3.1636002 4.1759233 2.7275515
000020 4e 60 92 40 d3 ff 3e 40 6c 8b 19 40 ca f2 7e 40
       4.574256 2.9843643 2.3991346 3.9835687
000030 39 36 10 40 f1 dc 6f 40 b7 fe 83 40 d6 ce 1f 40
       2.2533095 3.7478602 4.124843 2.4969993

sequential/batch_normalization_1/FusedBatchNormV31 f4 [16]
000000 99 c4 61 bf 3e f2 3f bf 05 9a 0d bf d4 8b 3c bf
       -0.8819061 -0.7497901 -0.5531314 -0.7365086
000010 48 61 00 bf 88 b8 12 bf ba 1b 33 bf 01 b5 0c bf
       -0.5014844 -0.5731282 -0.6996418 -0.5496369
000020 73 af 16 bf 7c b8 db be 61 89 2b bf 66 45 29 bf
       -0.58861464 -0.42914188 -0.670065 -0.6612152
000030 3b b7 17 bf b0 42 34 bf 1e 48 2a bf f5 56 1a bf
       -0.5926396 -0.7041426 -0.6651629 -0.60288936

sequential/batch_normalization_2/FusedBatchNormV3 f4 [32]
000000 b9 28 8a 3f 82 3b 8c 3f 88 09 ad 3f 7f 37 bb 3f
       1.0793678 1.095566 1.3518534 1.4626311
000010 24 d5 01 40 02 e9 fb 3f 58 50 06 40 1f c3 bd 3f
       2.028634 1.9680483 2.0986538 1.4825171
000020 ad 3e 98 3f da 8d e4 3f 96 50 53 3f 92 e7 a5 3f
       1.1894127 1.785579 0.8254484 1.2961295
000030 b2 7a a9 3f 47 23 b0 3f 97 ec 0f 40 41 a1 8c 3f
       1.3240569 1.3760766 2.2488153 1.0986711
000040 f5 b3 da 3f 67 99 84 3f e0 7d 46 40 80 d0 c5 3f
       1.7086169 1.0359315 3.1014328 1.5454254
000050 69 83 9e 3f f4 5e bd 3f 5e fa b7 3f e7 f1 6c 3f
       1.2383853 1.4794602 1.4373281 0.92556614
000060 0c b9 3c 3f 45 13 15 40 c2 19 04 40 ce 06 a2 3f
       0.7371986 2.329301 2.0640721 1.2658327
000070 ea 44 39 40 c2 36 ab 3f 8f 81 e1 3f 74 a8 32 40
       2.8948312 1.3376086 1.7617663 2.7915316

sequential/batch_normalization_2/FusedBatchNormV31 f4 [32]
000000 e3 d7 4c bf ce b0 53 bf 7c fc 42 bf 9c a9 0b bf
       -0.80016917 -0.8269166 -0.7616651 -0.5455568
000010 18 e9 13 bf 38 95 03 bf db 15 1c bf bb 1a 29 bf
       -0.5777755 -0.51399565 -0.6097085 -0.6605641
000020 43 76 53 bf 2e 32 f9 be bd 43 45 bf d5 91 3e bf
       -0.8260233 -0.48671097 -0.77056485 -0.7444127
000030 a2 99 2e bf bb 35 45 bf 62 4e 15 bf 35 a4 49 bf
       -0.68203175 -0.7703511 -0.5832273 -0.78766185
000040 5f 1c 1d bf 12 2b 32 bf 8c f8 ef be 74 41 1a bf
       -0.61371416 -0.6959697 -0.46869314 -0.60256124
000050 e9 7b 37 bf 99 92 1f bf 33 8b 40 bf 8e d1 49 bf
       -0.71673447 -0.62333065 -0.752124 -0.7883538
000060 2c ed 69 bf 38 66 15 bf cb 8c 0f bf f0 28 3d bf
       -0.9137752 -0.583591 -0.5607421 -0.7389059
000070 ba 39 07 bf 15 56 3e bf 6d fa 14 bf b8 89 0c bf
       -0.5282246 -0.743501 -0.5819462 -0.5489764

sequential/batch_normalization_3/FusedBatchNormV3 f4 [32]
000000 38 5d 00 40 d4 01 c5 3f d0 cc 00 40 da 0f f9 3f
       2.0056896 1.5391183 2.0125008 1.9457963
000010 d6 df e0 3f 33 51 d7 3f 75 07 01 40 c2 dd d6 3f
       1.7568309 1.6821655 2.0160801 1.6786425
000020 cf 8b 01 40 a1 ac e7 3f e4 1b ac 3f d5 50 f6 3f
       2.0241582 1.8099557 1.3446012 1.9243418
000030 41 a0 99 3f b9 26 f3 3f f7 51 ea 3f b7 7d f5 3f
       1.2002031 1.8996192 1.8306264 1.917899
000040 ea 5b cf 3f fd 40 bb 3f f9 94 f9 3f 08 be ce 3f
       1.6199925 1.4629208 1.9498588 1.6151743
000050 fe a6 f5 3f 8c da e3 3f 16 d9 ac 3f be 92 dd 3f
       1.9191587 1.780107 1.3503749 1.7310407
000060 e7 78 0d 40 67 26 d3 3f b3 18 f0 3f cd f4 c0 3f
       2.2105043 1.6496094 1.8757538 1.5074707
000070 3a 32 e0 3f 32 40 bf 3f e5 39 b3 3f fb 40 0b 40
       1.7515328 1.4941466 1.4002043 2.175841

sequential/batch_normalization_3/FusedBatchNormV31 f4 [32]
000000 e6 0f 29 bf 4d 9d 19 bf 11 cb 31 bf 69 f5 46 bf
       -0.66039884 -0.60005647 -0.6945048 -0.77718216
000010 13 8a 26 bf 91 ea 19 bf 77 cc 2a bf c4 09 35 bf
       -0.65054435 -0.60123545 -0.6671824 -0.70718026
000020 e9 71 2b bf 0f 47 25 bf 1a e0 1a bf b9 bf 33 bf
       -0.6697069 -0.6456155 -0.604982 -0.7021442
000030 9f 71 19 bf e4 5c 35 bf cf b2 30 bf 68 24 27 bf
       -0.59939 -0.70844865 -0.6902284 -0.65289927
000040 dd 8e 15 bf 93 77 39 bf d0 eb 24 bf 14 53 09 bf
       -0.5842112 -0.7244808 -0.6442232 -0.5364239
000050 96 2b 2d bf 28 ce 1a bf bb 37 09 bf bb bc 3d bf
       -0.6764463 -0.6047082 -0.5360066 -0.74116105
000060 a0 3a 31 bf 73 53 39 bf eb a5 15 bf 76 91 1b bf
       -0.6923008 -0.7239296 -0.58456296 -0.6076883
000070 16 19 23 bf cd 1d 11 bf e2 00 18 bf a1 58 3a bf
       -0.63710153 -0.566861 -0.5937635 -0.72791487

sequential/dense/MatMul f4 [64, 2048]
000000 9d b0 9e bc 9e 3a 8c bc b0 a2 b6 bc 25 23 2f bd
       -0.019371325 -0.017117795 -0.022294372 -0.042758126
000010 bb 8a c1 ba dd 8d 04 bd b7 93 82 3c c6 d8 9a bc
       -0.0014766076 -0.032361854 0.015939577 -0.018902194
000020 27 8b b3 bc 6c 8f c0 3c 4a 6e b1 bc 25 e3 49 bc
       -0.021916939 0.023505889 -0.021659035 -0.012322222
000030 23 44 fb bc 35 d1 60 3d ea eb 49 bd 27 cb 36 3d
       -0.030672139 0.054887015 -0.04929725 0.044627335
000040 e7 45 4a 3d 18 d8 fe bc 54 94 22 3d ef 1e 37 3d
       0.04938307 -0.0311089 0.039692238 0.044707235
000050 d7 b1 75 3b 17 88 ca 3b a7 aa 46 bc 72 c1 36 3d
       0.0037490034 0.006180774 -0.012125648 0.044618078
000060 66 93 a6 bc ed c0 15 bd f3 81 52 38 bc ab 81 3c
       -0.020333957 -0.03656094 5.0188926e-05 0.01582896
000070 ff 38 5f bc 20 d3 46 3d a6 3c e0 3b bb 4e 05 bd
       -0.013624429 0.04854119 0.0068431674 -0.032545786
000080 90 82 24 3d cb 5a f2 bc ff 0a bd bc 80 2d 11 3d
       0.040163577 -0.02958431 -0.023076532 0.035443783
000090 9b ab e0 3c c1 41 3f 3d 18 84 a5 ba 04 73 9b 3c
       0.027425578 0.046693567 -0.0012627868 0.018975742
0000a0 84 23 91 bc b2 ef ef 3c 62 37 d9 bc ee a9 20 3d
       -0.01771713 0.0292891 -0.026515666 0.039224558
0000b0 86 b2 47 bd 77 15 a1 3c a4 69 de 3c d0 df 1d 3d
       -0.048754238 0.019663556 0.027149983 0.038543522
0000c0 98 f7 1c bd 4b 45 0f bb aa e1 02 bd cf 29 27 bd
       -0.03832206 -0.002186137 -0.03195349 -0.040811356
0000d0 d8 06 ad bc 87 6e da ba 83 5f 53 3d ed 42 d5 3c
       -0.021121427 -0.001666502 0.05160476 0.02603289
0000e0 33 dd 98 bc fe 20 21 3b f0 8e d3 3c cf 2c 4f bc
       -0.018660164 0.0024586315 0.025824994 -0.012644961
0000f0 70 60 cb 3b f4 f9 12 bd 73 ed 50 bc 46 e6 b9 bc
       0.0062065646 -0.035882905 -0.012751925 -0.02269281
000100 82 b0 b6 ba 1d 6f 5d 3d fd 96 5b bd 36 ee f1 3c
       -0.0013938101 0.054061044 -0.05361079 0.029532533
000110 cd c6 f2 3c 8b da 34 3d fc 84 e4 3b ac 69 39 bc
       0.029635811 0.04415373 0.006973861 -0.011316698
000120 18 97 f4 bc 9e cc c7 bc 87 27 38 3c 9d 47 69 3b
       -0.029857203 -0.024389561 0.011239893 0.0035595663
000130 95 93 13 bd 47 4f 34 bd f7 7a bd bc 05 1f 05 3d
       -0.036029417 -0.044020917 -0.023129923 0.032500286
000140 83 c0 2c 3d 14 05 ff bc 5b 7f a8 bc 92 07 80 3c
       0.04217578 -0.031130351 -0.02056854 0.01562861
000150 16 d6 c1 3c 2d 12 b4 3a 0b 99 7f 3c 0e 77 86 bc
       0.023661654 0.0013738327 0.015600453 -0.016414192
000160 34 d2 4c bd d4 b2 ee 3c cf bb 97 3c ac 0b d2 bc
       -0.050005153 0.029138006 0.018522171 -0.025640331
000170 6e c2 09 bd a3 07 d1 3c e7 2d c6 bc e9 f7 4d bd
       -0.03363269 0.025516337 -0.02419181 -0.050285254
000180 1b 81 13 bd 48 f9 b6 3c f7 0c 2c 3d 48 a7 c7 bc
       -0.036011796 0.022335663 0.04200455 -0.024371758
000190 8f c3 c4 3c 79 ba 84 bc 12 3b 5a 3d a3 2a 1b bd
       0.02401903 -0.016202198 0.05327899 -0.03788246
0001a0 f2 ed 55 3c 0b da d4 bc fc 17 d5 bb 9e 98 18 3d
       0.013057219 -0.025982877 -0.0065031033 0.037254922
0001b0 16 6d 2e 3d fd fa 2b 3d 68 06 06 3d ad 8c a4 3c
       0.0425845 0.041987408 0.032720953 0.02008661
0001c0 d6 19 1b bc 38 d8 54 bd 3a 15 02 bd cd 10 92 3b
       -0.009466609 -0.051964015 -0.031758524 0.004457569
0001d0 75 5a c5 3c a7 e7 f7 3c 90 c6 b9 bc 11 29 6e bb
       0.024090985 0.030261828 -0.02267769 -0.0036340395
0001e0 a9 fa 51 bd 61 b2 2b bd 18 d3 44 3d da 63 82 bc
       -0.05126444 -0.041918162 0.048052877 -0.015916754
0001f0 52 75 38 bd 08 71 3a bd af 14 9e 3c 61 1d 3a bd
       -0.04503376 -0.04551795 0.019296972 -0.045438174
000200 c5 e7 39 3d 69 69 2e 3d e8 67 0d bd 0c 46 0b 3d
       0.04538705 0.042580996 -0.03452292 0.03400235
000210 0b 6e e7 3c f9 5f 5a 3d 12 50 f2 3b 97 fa 25 bb
       0.028250715 0.053314183 0.007394799 -0.0025326365
000220 c5 b3 49 3c a8 65 50 bd c0 bd c5 bc 0c 00 ff bc
       0.012310927 -0.050878197 -0.024138331 -0.031127952
000230 68 4e 57 bb 61 32 7f 3c 64 39 30 3d 16 a8 93 3c
       -0.003285313 0.015575976 0.043023482 0.018024486
000240 b4 30 ca bc 42 09 39 3d 7b ee 03 bd 78 f2 43 bd
       -0.024681427 0.045174845 -0.032209855 -0.047838658
000250 e3 76 25 3d 1a 30 9a 3c 07 53 9a 3c a0 74 97 bc
       0.040396582 0.018821765 0.018838419 -0.018488228
000260 b9 79 21 bd 75 8d 1b 3a 57 5f 10 3d a8 ec 4f 3d
       -0.039422724 0.00059338595 0.035247173 0.050762802
000270 e0 46 0f 3d b1 55 30 bb 36 58 0a 3b c3 3d 50 3d
       0.0349797 -0.0026906545 0.0021109707 0.05084015
000280 ef 41 5a 3d 1a 2f aa 3c 2a 71 be bc 92 9f 8c 3c
       0.053285535 0.020774413 -0.02324732 0.017165933
000290 fb 3d 73 3c 80 a0 e2 bc 89 de 90 bc b3 be e9 3c
       0.01484632 -0.027664423 -0.017684238 0.028533315
0002a0 d7 a7 30 bb 46 19 d7 3c d1 81 43 3d dc 2e a8 3c
       -0.002695551 0.026257169 0.047731224 0.020530157
0002b0 5c 68 c5 3c 24 44 e4 bc 4b 0e 48 bd 08 c8 49 bd
       0.024097614 -0.027864523 -0.048841756 -0.04926303
0002c0 1f fb 5c 3d e2 22 d4 bc 7d 63 0e bd 76 09 53 bc
       0.053950425 -0.02589554 -0.03476285 -0.012880674
0002d0 4a 7f 2a 3c 57 91 3c 3d 53 c0 f2 3c 10 4c 38 3c
       0.010406325 0.046037044 0.029632723 0.011248603
0002e0 ea c2 21 bc 1b 1a 10 3d db 78 c5 3c 55 a5 d5 3b
       -0.009873131 0.035181146 0.02410548 0.0065199533
0002f0 2e 10 3e 3c fb 27 2b bd bd 9d e0 3a c7 68 17 bd
       0.011600537 -0.041786175 0.0017136853 -0.036965158
000300 e8 c5 9a 3b 9e 22 87 39 10 93 c7 bc 7f ba 0c bd
       0.0047232993 0.00025774998 -0.024362117 -0.034357544
000310 ad 77 f4 3c 7f ac 4c bb 3d 29 bb 3c 38 2a 1a bd
       0.029842222 -0.0031230745 0.022846812 -0.03763792
000320 e0 5e c6 bc a1 05 00 3d 6a cb c8 bc 50 3d 18 3a
       -0.024215162 0.03125537 -0.024511058 0.0005807476
000330 ab 4e ec bb f1 41 f5 bb e2 8c cf 3c 14 9d 9b bc
       -0.0072115264 -0.0074846675 0.025335733 -0.0189958
000340 09 3d 07 3d 99 60 91 bc 37 07 01 bd ae 56 d4 3b
       0.033017192 -0.017746257 -0.03150102 0.0064800596
000350 84 f8 0d 3d 61 2b 42 bd af 27 15 bd 9b c9 ec 3b
       0.03466083 -0.04740465 -0.0364148 0.0072261817
000360 39 d3 71 bc 11 d8 30 3d 69 b1 19 bd 0b 2e b7 3c
       -0.014759832 0.043174807 -0.037522707 0.022360822
000370 ef 98 06 3d d7 20 82 3c 8f 01 56 bd de aa 59 bd
       0.032860693 0.0158848 -0.05224758 -0.053141467
000380 fd a6 19 3d 6b 74 e5 3c 0f e2 20 bd e8 01 16 bd
       0.037512768 0.028009614 -0.039278086 -0.03662291
000390 b8 9d 3d bd 82 54 0a bc b9 2c 69 3c 8b 5e 19 bd
       -0.04629299 -0.008443 0.014231854 -0.03744368
0003a0 a7 1a cf 3c f8 5f 22 bd 71 18 25 bd 52 a4 7d 3b
       0.025281264 -0.039642304 -0.040306512 0.003870268
0003b0 27 84 52 bc 68 b7 fe 3b 00 61 1d 3d 01 66 b8 bc
       -0.01284889 0.0077733286 0.038422585 -0.022509577
0003c0 b7 70 89 3c 52 2a 5d 3d a6 5a 58 3d a1 c5 e3 3a
       0.01677738 0.053995438 0.052820824 0.0017377624
0003d0 59 91 08 3d 95 82 c7 bc f7 75 29 bc 3b 5f 35 bd
       0.03334174 -0.024354259 -0.010343066 -0.044280272
0003e0 be bf 0d bd f3 c0 74 3c c5 f6 f9 bc f4 2c d7 bc
       -0.034606688 0.014938581 -0.030513177 -0.026266553
0003f0 c3 1e 91 bb 6c ee ff 3c e7 96 fc bb 25 74 e1 3b
       -0.004428716 0.031241618 -0.0077084186 0.0068803006

sequential/dense_1/MatMul f4 [2, 64]
000000 82 db b6 bc 71 9a 37 be ff 1f 8f bd 34 19 43 3e
       -0.022321466 -0.17930008 -0.06988525 0.19052583
000010 2a c9 23 be 5c 6a 05 3c e0 e0 86 bd 0c be 20 3e
       -0.15994707 0.008143034 -0.0658586 0.15697497
000020 16 39 d1 bb ce dc de 3d d9 f8 1d be 08 02 60 bd
       -0.006384979 0.10881959 -0.15426959 -0.054689437
000030 31 dc 85 be 58 60 91 be 5f f0 19 3d f2 94 05 be
       -0.26144555 -0.28393817 0.03758275 -0.130451
000040 98 ed 25 be 53 eb d8 bd 76 90 4f 3d 49 15 df bd
       -0.16203916 -0.105917595 0.050674878 -0.10892732
000050 ac ba 85 3e ed a6 a7 bd 47 92 94 3d 9a 0a ee bd
       0.26118982 -0.081861354 0.07254463 -0.11623116
000060 15 c0 12 3d 31 cf 92 3d ee 19 8c 3e 76 cc 2c 3e
       0.035827715 0.07168425 0.27363533 0.1687487
000070 79 84 2d be 4d 96 1e 3e cf 76 7a 3e 22 41 24 ba
       -0.16945066 0.15487023 0.24459384 -0.0006265809
000080 a9 70 73 3e 90 cb d4 3d 72 df 89 3e 0e 46 36 3e
       0.23773445 0.10390389 0.26928288 0.17800161
000090 a1 99 92 be 3f 9d 83 be be b0 7d be d1 57 df 3d
       -0.28632835 -0.25705907 -0.24774453 0.109054215
0000a0 92 79 c0 3d 97 4e 7a 3e 05 69 f5 bd d1 5b 19 be
       0.09398188 0.24444042 -0.119829215 -0.14976431
0000b0 64 fc 08 bd fa b2 03 3d 52 f3 98 bb 72 41 f8 bd
       -0.033443823 0.032153107 -0.004667678 -0.12121858
0000c0 93 a8 99 bd 3d 53 1f 3c 0d 91 29 bd 2f 38 06 be
       -0.07502856 0.009724435 -0.041398097 -0.1310737
0000d0 4b 3f 67 3e b0 8d e6 3b 23 04 22 be 63 a9 6c 3e
       0.22582738 0.0070359334 -0.1582189 0.23111491
0000e0 25 22 b0 bd b5 2d 8f 3e bd 0b 09 be 03 fb 52 3e
       -0.086002626 0.2796456 -0.13383384 0.20603566
0000f0 f3 ea 66 3d 69 ac 5f 3e 3f e2 4f bd 8f b4 79 3e
       0.05637641 0.21843113 -0.050752874 0.24385284
000100 7c ea 8d 3d a1 97 82 3e b6 c3 74 3e 24 57 b4 3d
       0.0692949 0.2550631 0.23902783 0.08805683
000110 07 22 1f 3e 19 5e 31 3e 74 9a 86 be fa a3 c7 3d
       0.15540324 0.17321052 -0.26289713 0.09748073
000120 0c 66 3c be 63 7c 4e bd 29 0f 31 bd 4c 90 84 be
       -0.18398303 -0.050411593 -0.04322735 -0.2589134
000130 3d d1 3b be 5d e9 a0 bc 29 a0 15 be 9c 3f 9c bd
       -0.18341537 -0.019642526 -0.14611878 -0.0762932
000140 45 f8 50 3e 04 c4 7e be 2e b3 de 39 f8 5e 18 3e
       0.20407207 -0.24879462 0.0004247664 0.14879978
000150 77 96 91 3d 5f 7d 0d bd 28 f9 0d 3e 0c 50 47 3e
       0.07108777 -0.03454339 0.13864577 0.19464129
000160 d5 45 45 3e 26 ba 08 be fb 8c 38 3e c7 2d 99 3e
       0.1926492 -0.1335226 0.1802253 0.29917738
000170 ca e1 80 be 5a ad 7c 3e 1e 89 85 be a0 10 12 be
       -0.25172263 0.24675503 -0.26081175 -0.14264154
000180 a8 25 2d be 3e 19 80 bd 57 47 5b be ef d9 6c be
       -0.16908896 -0.062548146 -0.21413933 -0.2313001
000190 28 49 c0 3d bf 4c 97 3d e4 54 90 3c 2b e8 5c 3e
       0.093889534 0.07387685 0.017618604 0.2157294
0001a0 f6 e1 d3 bc 79 06 64 3d d7 09 30 3e d7 f2 c2 3b
       -0.025864583 0.055670235 0.17191254 0.005949359
0001b0 b1 6e 67 be dd 58 84 3e cd 6e 84 be 3a 20 f5 3d
       -0.22600819 0.25849047 -0.25865784 0.11969037
0001c0 08 af 34 3e 9d b5 e6 3d 52 25 70 be bc 7b 85 bc
       0.17644894 0.11265109 -0.23451737 -0.016294353
0001d0 49 4a 97 3d d8 fa 91 bc b1 35 30 3d 5b 80 30 be
       0.07387216 -0.017819807 0.043019954 -0.17236464
0001e0 ec 7b 4c 3e 38 ed 65 be 08 3c 57 3e b1 36 7b 3e
       0.19969147 -0.22453773 0.21018994 0.24532582
0001f0 55 19 1a be 88 ae 5d be 6e c7 2d be 74 62 92 3c
       -0.15048726 -0.2164861 -0.16970608 0.017869212

sequential/conv2d/Conv2D f4 [16, 3, 3, 3]
000000 ba 19 a8 3c 9e 0b d3 ba bf bc 1e 3e 38 36 70 3d
       0.02052008 -0.0016101485 0.15501688 0.058645457
000010 99 40 bb 3d f0 70 ad 3d 71 82 08 be 7a 1b dd bd
       0.091431804 0.08468807 -0.1333101 -0.10796256
000020 82 b8 4a bd 55 b3 84 3d 6f f1 bf bd af db 15 3e
       -0.049492367 0.06479517 -0.09372222 0.14634584
000030 e1 ad 33 3e 0d 52 39 3e 52 da ba 3c e6 43 31 be
       0.17546798 0.18097706 0.022809181 -0.17311057
000040 6f e4 40 be b1 c9 0b be 81 c4 32 bd 61 b4 57 3d
       -0.1883714 -0.13651158 -0.043644432 0.052662257
000050 78 06 d6 3c 07 55 f4 3d 9c 15 12 be 37 1e 38 3d
       0.026126131 0.1193028 -0.14266056 0.04495069
000060 4b 15 31 be 09 ac 81 bd 83 47 2e be d1 c1 af 3d
       -0.17293279 -0.06331641 -0.17019467 0.085818894
000070 34 76 38 be 95 8b 35 bd 4c 17 e0 bd 45 19 2b 3d
       -0.18013841 -0.04432257 -0.109419435 0.041772146
000080 68 db 9a bd 9d 9f 80 bd 02 42 34 be 3a 65 1f 3e
       -0.0756138 -0.06280444 -0.17603305 0.15565959
000090 b7 88 80 bd 1d 3d d2 3b 8d 7a 1b bd 0d 03 32 be
       -0.06276076 0.0064159767 -0.03795867 -0.17383976
0000a0 05 0f 11 3d 12 b7 ef 3d 80 a2 15 3e 36 4a 84 3c
       0.035414714 0.1170484 0.1461277 0.016148668
0000b0 af f3 19 bd 6d e4 7e bc a6 35 49 3d e4 c0 1d 3e
       -0.03758591 -0.015557391 0.04912343 0.15405613
0000c0 bc f6 c6 bd 0b 5f 5e bd 67 fc 2f bd c1 5c 3f 3e
       -0.097150296 -0.05428986 -0.04296532 0.18687727
0000d0 37 23 f5 3d 48 3e 98 3d ef 2e 76 3d 91 01 6e bd
       0.11969607 0.07433754 0.060103353 -0.058106963
0000e0 e9 27 28 be d0 2c 0e 3d 76 1c 00 be 92 60 30 be
       -0.16421475 0.034710705 -0.12510857 -0.17224339
0000f0 51 72 04 be 3d 47 86 bc d9 98 49 bd 76 76 be bd
       -0.12934233 -0.016391391 -0.049218033 -0.092999384
000100 3a 3c ce bd 35 a5 b5 bd 15 6e 1e 3c 59 00 71 bd
       -0.10070081 -0.08869401 0.0096698 -0.058838222
000110 7b 1f 14 be 7c 73 27 3e cb f9 d3 bd 1f f9 d2 bd
       -0.14465134 0.16352648 -0.103503786 -0.10301422
000120 e0 19 1f 3e 5a 90 9a 3d 04 50 f5 3d 76 82 0b 3c
       0.15537214 0.07547064 0.119781524 0.008514991
000130 b0 6b a6 3d 91 f7 8d 3d 56 68 40 be 39 c0 f8 bd
       0.081260085 0.06931985 -0.18789801 -0.121460386
000140 1f 6e 34 bd 7e 73 28 3e 74 dd 45 3e ff e1 2e 3e
       -0.044050332 0.16450307 0.19322759 0.17078398
000150 19 14 18 3e 39 a1 01 be a0 4c 32 3e 48 1c 76 3d
       0.14851417 -0.12659158 0.17412043 0.060085565
000160 12 e3 f1 3d c2 98 1c be 10 80 3f 3d a8 1a e9 ba
       0.11810888 -0.15292647 0.04675299 -0.0017784433
000170 11 ba ee bd f2 9c 39 be 22 3a c2 bd 07 5e a1 bc
       -0.11656583 -0.18126276 -0.09483744 -0.019698156
000180 e2 ff 1c bd f8 28 5f 3d 05 4a a4 bd 88 bf 0c bd
       -0.038329966 0.05448243 -0.080219306 -0.034362346
000190 60 87 d2 3d 0e ab 14 3e 12 af d1 3c 81 62 6a 3d
       0.10279727 0.14518377 0.025596175 0.057222847
0001a0 e6 5c b5 3d 41 b1 a7 3c 3a 3a 89 3d 84 b5 bf bc
       0.088556096 0.020470263 0.06700559 -0.023401983
0001b0 76 11 0e 3e ce 5b 0f be d9 4c 65 3c d0 3a 40 be
       0.13873848 -0.13999864 0.013995373 -0.18772435
0001c0 29 c3 ee bd f8 95 0b ba e0 99 1a bd 5b 5e 31 3d
       -0.116583176 -0.0005324776 -0.037744403 0.043302875
0001d0 60 54 a8 bc 41 20 df bc c6 4e 69 bc a7 1f 18 bd
       -0.020548046 -0.02723706 -0.014239972 -0.03713956
0001e0 03 1a a4 3d 65 93 ad bc 41 21 7b bd e8 c6 2f 3e
       0.08012774 -0.021188447 -0.06131101 0.1716572
0001f0 ab 47 31 be d3 65 fd 3d f0 5d 6b bc 07 a2 f0 bd
       -0.17312495 0.12372937 -0.014365658 -0.11749654
000200 96 e5 c9 bc bc 83 d8 3c 53 65 9c bd 81 05 07 be
       -0.024645608 0.026430003 -0.076365136 -0.13185693
000210 04 af 2a bc fd ed a8 3d e1 6e fd bd e0 9c f3 3d
       -0.010417704 0.08248518 -0.12374664 0.11895156
000220 dd 0a 3a bd b5 21 ce bd 5f 9e 0a 3c 46 54 e2 bd
       -0.045420516 -0.10065023 0.00846061 -0.1105123
000230 62 ed 42 bc fb d7 32 be b3 b0 19 be c9 c0 cb 3c
       -0.011897417 -0.17465203 -0.15008812 0.0248722
000240 f8 fc a5 bc 07 ee 21 3e 89 97 d5 3d 70 37 8d 3d
       -0.020262226 0.15813456 0.10429294 0.068953395
000250 8e 2a 18 3e 9e 40 24 be 0d 45 be bd ab 01 b6 3d
       0.14859983 -0.16040275 -0.09290514 0.08887037
000260 55 a5 0a 3e f7 38 1d be dd 47 27 3e 1e 20 1c 3d
       0.13539632 -0.15353762 0.16336007 0.038116567
000270 4b cb 14 3e 7c 95 f8 bd a8 8e af bd f9 22 38 be
       0.14530675 -0.12137887 -0.085721314 -0.17982091
000280 27 ef 0e be bb 45 1b 3e f4 be 2b 3b cc cf c5 bc
       -0.13958417 0.15163319 0.0026206346 -0.024146937
000290 28 9f 4e bd 04 59 d8 bd f2 45 e7 bd 6a d6 20 bd
       -0.050444752 -0.105638534 -0.11292638 -0.03926698
0002a0 a1 a7 6c 3d b9 6b 31 3e af ea 88 bd eb 4f 98 3d
       0.05777705 0.17326249 -0.06685387 0.07437118
0002b0 6c 91 aa 3d 71 34 31 be c6 a8 98 3d ca 14 32 be
       0.08328518 -0.17305161 0.07454066 -0.17390743
0002c0 f0 e7 1f be 0d 04 07 3e 0d 1e 75 3d 50 7c 55 bc
       -0.15615821 0.13185139 0.05984311 -0.013030127
0002d0 d5 96 13 3e 81 c0 39 bd 32 53 08 be a4 b1 16 3c
       0.14413007 -0.0453496 -0.13312986 0.009197626
0002e0 b4 69 0d be 6c f1 25 3e bc 9a b1 bd fa 04 0e be
       -0.13809854 0.16205376 -0.08672091 -0.13869086
0002f0 16 c0 b6 3d cd d1 a8 3d f2 7e 2a 3e c7 e8 17 bc
       0.08923356 0.08243141 0.16649988 -0.009271807
000300 42 b8 d8 bd 8d 18 ef bc f2 2e 50 3d 1b 30 22 be
       -0.105820194 -0.029186511 0.05082602 -0.15838663
000310 37 15 14 3e 8e aa 93 bd d2 db 2c be 4d 25 83 bd
       0.14461218 -0.07210265 -0.1688073 -0.06403599
000320 02 ab ee bb a1 45 74 3b 87 1b 1a 3e ef 3a de bb
       -0.0072835693 0.0037272947 0.15049563 -0.006781928
000330 5b 1f 0c 3e 62 0c 0b 3e a9 64 05 be 38 a1 0e 3d
       0.13683836 0.13578942 -0.1302668 0.03482172
000340 38 b4 1a be b1 d5 12 3e 00 60 f0 bd dd b5 32 be
       -0.1510781 0.1433933 -0.117370605 -0.17452188
000350 f3 93 34 3d fc 45 a9 3d dc fc 1d bc ab 83 c9 3d
       0.044086408 0.082653016 -0.009642806 0.09839567
000360 ae ce df bc ca df 09 be 9f 19 42 bd 65 fd 0f bd
       -0.027320232 -0.13464275 -0.047387715 -0.035153765
000370 44 3c 32 be 6f 2b 16 3e de ab e1 bd c8 68 b3 3d
       -0.17405802 0.14665006 -0.11019109 0.0876022
000380 f5 2f 2c 3d 2f 80 e5 3d 08 7a 17 bd 85 08 cb 3d
       0.042037923 0.1120609 -0.036981612 0.09913734
000390 58 b4 ea 3b c9 f1 dd 3d 7a af 8e bc 35 02 aa bd
       0.007162612 0.108371325 -0.017417658 -0.08301202
0003a0 31 8f 6b 3d 46 20 c0 bd ad 69 b4 bd ef 0d 0a be
       0.057509605 -0.09381156 -0.088092186 -0.13481878
0003b0 98 2b 00 be ee 5d db 3d 2c 07 3d 3d f9 2c 3b 3e
       -0.1251663 0.10711275 0.046149418 0.18278874
0003c0 d3 45 0a bd c3 5f 78 bc 92 f3 40 3e ed cb d5 3d
       -0.033757996 -0.01515955 0.18842915 0.104392864
0003d0 1f a5 e9 bd 60 9e 99 bc b0 28 03 3e 69 c1 04 3e
       -0.114084475 -0.018752277 0.1280849 0.12964405
0003e0 be 72 9d 3d d8 47 2a 3e 5c 1b db 3d 4f c5 4e 3d
       0.07687901 0.16628969 0.10698578 0.050481137
0003f0 ab 95 ba 3d 69 8b d5 3d 3d 8f 3f 3d 9c fa 12 be
       0.09110578 0.10426981 0.046767462 -0.14353412

sequential/conv2d_1/Conv2D f4 [16, 3, 3, 16]
000000 ee 13 11 be 55 8d 0e be 92 8a 7d 3d 9a cb e0 bc
       -0.14167759 -0.13921101 0.06189973 -0.027440835
000010 ea e3 35 3d 90 05 03 be a6 d7 d2 bd 0c ec ed 3c
       0.04440681 -0.1279509 -0.10295038 0.02904322
000020 e3 b6 9f 3d 27 ee de bd 3b 7b cc 3d 39 71 e6 3c
       0.07798555 -0.10885268 0.09984442 0.02813016
000030 58 ca d9 3d 02 77 d3 bd 40 57 a7 3d 1b 21 8d bc
       0.10634297 -0.10325433 0.081709385 -0.0172277
000040 f4 b6 bd bd 8f ae 93 3d b0 ea 1f 3c 7a b3 be bc
       -0.09263411 0.07211029 0.009760544 -0.02327894
000050 61 e1 8c 3d 9a 83 03 be 78 47 47 bd 59 ea de bd
       0.06878925 -0.12843171 -0.048652142 -0.10884542
000060 5a 24 c2 3d 21 c8 04 3e 4f 07 07 be cf 51 23 bc
       0.0947959 0.12966968 -0.13186382 -0.009968235
000070 41 8a 02 3e 8a 55 11 3e 07 76 c8 3d fb c1 ee bd
       0.12748052 0.14192787 0.09788137 -0.116580926
000080 c8 6b 92 3d 3a 5e 3a bc f1 30 63 bd b4 9c 10 be
       0.07149464 -0.011375004 -0.055466596 -0.14122277
000090 ba 37 dd 3c b2 1f 19 3e 70 d0 12 be c9 8d 79 3c
       0.027004112 0.14953497 -0.14337325 0.015231558
0000a0 95 60 ac ba 94 81 e8 3d d3 f8 70 bd 90 1e a7 3d
       -0.0013151342 0.1135284 -0.058831047 0.08160126
0000b0 31 db 5e bd c3 0b 8e bd 45 37 67 bd 5a 1a 0f 3a
       -0.054408256 -0.06935837 -0.056449194 0.0005458944
0000c0 16 1a f4 bd d7 0c 90 bd ef e4 d4 bd d6 72 25 bc
       -0.11919038 -0.07033699 -0.10395228 -0.01009818
0000d0 6d 68 1b bd f5 9b 6f 3d b0 73 05 3e 5b 10 b0 3d
       -0.037941385 0.05849834 0.13032413 0.085968696
0000e0 de 56 e8 bc 5c c1 a2 bd d1 02 e5 3d 89 f9 49 bc
       -0.028361734 -0.079470366 0.11182178 -0.01232756
0000f0 6f 07 ce bd ed b8 04 be ee a0 3b 3d c1 7d 15 bd
       -0.100600116 -0.12961169 0.04580777 -0.03649688
000100 5d b0 92 bd 10 f2 41 bd 4d 48 8b 3b ef 89 e3 bd
       -0.07162545 -0.04734999 0.0042505623 -0.11110293
000110 e1 bb c8 bc 51 1f bd bd 91 28 ea bd 0a 34 a6 bc
       -0.02450365 -0.09234489 -0.11433519 -0.020288486
000120 c1 49 b8 3d 59 27 29 bd 75 0d 05 be 1e c7 a6 bd
       0.089984424 -0.04129729 -0.12993415 -0.08143447
000130 d1 89 09 be e0 17 0f 3e e2 f3 ec 3d 2f f2 2d 3d
       -0.13431479 0.13973951 0.115699545 0.042467292
000140 7a 83 87 bd 3b a9 f3 bd cb 11 94 bd a0 6f c8 bb
       -0.06616874 -0.118975125 -0.07229956 -0.0061168224
000150 d4 7d b4 bd fc 14 08 3e d6 ef 06 be c2 55 94 3d
       -0.08813062 0.13289255 -0.13177428 0.072429195
000160 f3 3c 3d bc 7d fc 47 bc 38 0f 26 3c d7 14 63 3d
       -0.011550176 -0.012206194 0.010135464 0.055439796
000170 c3 3f a8 3d 7a 1b ad bd 96 71 8c bd 1a 81 39 3d
       0.082152866 -0.08452506 -0.06857602 0.045289136
000180 7e f7 9a bd 3a 43 83 3d ea a6 4c bb e0 29 c0 3d
       -0.07566737 0.06409307 -0.0031227418 0.09382987
000190 c8 82 c4 3b 48 c3 12 bd f0 b8 e0 3c ed ab 6e 3c
       0.0059970357 -0.035830766 0.027431935 0.0145673575
0001a0 9b 4e 10 3d 04 ed 6d bd c7 32 d8 3d 26 fb 97 bd
       0.035231214 -0.058087364 0.1055656 -0.0742095
0001b0 9a ba bc 3c c1 2c a1 bd a2 49 e5 bd 5b 85 91 3d
       0.023038197 -0.07869864 -0.11195685 0.07105514
0001c0 d5 23 cf bd ad 41 9a bd 96 03 8a 3d e4 24 0c be
       -0.10114256 -0.07532058 0.06738965 -0.13685948
0001d0 41 f6 94 bd f6 bc 1d bd 1d 05 1b bc 25 60 f0 3d
       -0.07273532 -0.038510285 -0.009461668 0.11737088
0001e0 f0 78 07 3d 15 2c e7 3d 49 58 b8 3d 4b 86 27 bd
       0.03307432 0.11287705 0.09001214 -0.040899556
0001f0 fd 25 06 3e 25 d3 b2 bd 76 71 ab bd f2 53 b9 3c
       0.13100429 -0.08731679 -0.0837125 0.022623036
000200 55 69 01 be f4 6c 25 bd 43 1c 10 be fb 8d 97 bc
       -0.12637837 -0.04038711 -0.14073281 -0.018500319
000210 8e 2a 8c 3d 2e 1b eb 3c 5e ec 8e ba c9 b1 04 bd
       0.06844054 0.028699484 -0.0010904183 -0.03239611
000220 2e 03 8b bd 2f 11 de 3d 55 fd 05 3e 83 bb 0b be
       -0.06787716 0.10843121 0.1308492 -0.13645749
000230 63 87 80 3d e9 33 2c bd 5a 32 ea bd bc 9e 76 3b
       0.06275823 -0.042041693 -0.11435385 0.0037631234
000240 41 27 99 3c e8 08 76 bd e1 0b ee 3d 27 46 8d 3d
       0.018695476 -0.060067087 0.116233595 0.06898146
000250 28 69 ab 3d dd 68 9f bd b2 1d 73 bd 8b 72 0b be
       0.08369666 -0.07783673 -0.05935449 -0.13617913
000260 8e 90 49 3d 60 75 ba 3d 42 c6 68 3d fc 7a 01 3e
       0.049210124 0.09104419 0.0568297 0.12644571
000270 ad dd 57 3d 2e 9c 85 3d b6 4c be bd 79 27 21 bb
       0.05270164 0.065239295 -0.09291975 -0.0024590178
000280 03 10 d9 bd e0 77 b3 3d 08 57 e2 bc ce a1 9a 3d
       -0.10598757 0.08763099 -0.02762939 0.07550393
000290 38 1d 71 3b c3 cf fe bc d7 e0 ac bd 5f b9 fa bd
       0.0036791097 -0.031104928 -0.08441322 -0.12242388
0002a0 df bd f2 bd 7e 27 f5 bd 9d 75 9b bd 98 af af bd
       -0.11852621 -0.11970423 -0.07590792 -0.08578414
0002b0 a5 5b fd bc c0 15 a6 3d a6 84 f1 bd 9b 62 f1 bc
       -0.030927489 0.08109617 -0.11792879 -0.029465964
0002c0 89 9f 7e bd 5b 47 c0 3d f9 47 f8 3c c6 1d 9d bc
       -0.062163863 0.0938861 0.030307757 -0.019179236
0002d0 49 75 29 bd 27 e1 f3 bd 2e 60 33 bd 98 d0 d3 bc
       -0.041371617 -0.11908179 -0.043792896 -0.025856301
0002e0 e3 e8 f2 3c 55 f9 2d 3d 2a 69 c1 39 4e 34 9c b8
       0.029652065 0.04247411 0.00036890182 -7.448402e-05
0002f0 b6 8c cd 3c 4c ca 4d bd 06 37 8d 3c bf ae 26 3d
       0.02509151 -0.050241753 0.017238151 0.040693995
000300 88 c1 23 3d 0e 16 04 be f8 50 c8 3d 5d 20 96 bd
       0.039979488 -0.12899038 0.097810686 -0.073303916
000310 11 09 c0 bd ce 43 8b bd 9f 4a 50 bc 14 07 bf bd
       -0.09376729 -0.06800042 -0.012713104 -0.09327522
000320 16 10 81 3d b0 10 81 3c 09 a7 47 bd 04 a6 ba bd
       0.06301896 0.015755028 -0.04874328 -0.09113696
000330 36 88 de 3d 68 7f 0d 3e a6 de c0 3c cb ad 09 3e
       0.10865824 0.13818133 0.023543667 0.13445203
000340 61 bb d6 bb e6 ca 13 be b0 24 1d 3c 29 e8 7b 3d
       -0.006553099 -0.14432868 0.0095912665 0.061500702
000350 83 7c 59 bb 8c 40 b7 bd 61 06 e5 bd a7 35 b7 bd
       -0.0033185787 -0.08947858 -0.11182857 -0.0894578
000360 01 0c c9 bd 31 29 e3 3c 80 eb e8 3d e0 3b 68 3d
       -0.09816743 0.027729603 0.11373043 0.056697726
000370 c7 39 ef 3c 84 39 00 be d8 f3 a3 3d f0 df b2 bd
       0.029202355 -0.1252194 0.08005494 -0.08734119
000380 57 11 b1 bc f0 39 6e 3d 0d 04 53 ba 1d 13 e4 bd
       -0.021614714 0.058160722 -0.0008049615 -0.11136458
000390 0a 3d c5 bd 3e 84 e3 3d d8 45 8a bc 47 b5 df 3c
       -0.09630783 0.111092076 -0.016879007 0.02730812
0003a0 28 5e 13 3e d6 1a 0a 3d 84 bb de bc d0 ec dc bb
       0.14391387 0.033717 -0.027189024 -0.0067420974
0003b0 b7 3e 4f 3c fa 54 7a bd 44 41 de bd cf 46 42 3d
       0.01264923 -0.061116196 -0.10852292 0.04743081
0003c0 2e f1 63 bc 16 39 14 be 43 f9 10 be 9c 94 06 3d
       -0.013912482 -0.14474902 -0.14157586 0.03285657
0003d0 c7 9d 9c 3d 06 39 d3 bc 9f 58 33 3d 01 9c 9d 3c
       0.07647281 -0.025784027 0.043785688 0.019239428
0003e0 cf 7a c5 bd c3 bc 08 be 4b 90 ae bd bd 83 90 bd
       -0.096425645 -0.13353257 -0.085236154 -0.07056377
0003f0 83 28 99 bd b6 71 00 3a 6e 19 b3 bc 09 dc 0b 3d
       -0.0747843 0.0004899757 -0.021862712 0.03414539

sequential/conv2d_2/Conv2D f4 [32, 3, 3, 16]
000000 1c 00 8c 3d 2c 17 d0 3d ab 9c 02 3d 90 78 f1 3d
       0.06835958 0.1016067 0.03188769 0.117905736
000010 84 42 e6 3d 85 6d 5f 3d ea 2d d0 3d e2 c3 a9 bc
       0.112431556 0.054547805 0.101650074 -0.020723287
000020 18 16 9d bc f8 6f 25 3d 3f d0 a8 bd ff b3 a0 bb
       -0.019175574 0.040389985 -0.08242845 -0.0049042697
000030 ea af 7c 3d 29 8c b8 bd 8c 5a c2 3d 07 d2 c7 bd
       0.061691202 -0.090111084 0.09489927 -0.097568564
000040 dc 5f df 3d 58 16 a6 3d 21 4e ac bd 39 de 94 bc
       0.109069556 0.081097305 -0.084133394 -0.01817237
000050 ee 2d 40 3c af ef 84 3d 62 e7 cc 3c 10 70 a5 3d
       0.0117297005 0.064910285 0.025012676 0.08078015
000060 c0 1b 49 3d e7 1a a3 3d e3 c0 ef 3d c5 c9 5a bd
       0.04909873 0.079641156 0.11706712 -0.05341508
000070 c8 76 65 bd 96 20 a0 3d a8 8e 7b 3c 43 83 c0 3d
       -0.05602148 0.07818715 0.015353836 0.09400036
000080 72 80 cf bd fb 6a 30 bd 33 b7 5d 3c 3a c5 08 bd
       -0.10131921 -0.043070775 0.013532448 -0.033391215
000090 a2 e6 ef bc d4 3d 9f 3b 8a 66 c2 bc 69 38 6c bc
       -0.029284779 0.0048596654 -0.023730535 -0.014417746
0000a0 8e b7 f9 38 17 28 ee 3d 3a 8b f5 3d 51 42 d1 bc
       0.00011907435 0.1162874 0.11989446 -0.025544317
0000b0 c9 34 1c 3d 5f 1d e2 bd f1 8f 2f bd 67 a9 dc 3a
       0.038136277 -0.11040758 -0.042861883 0.0016835154
0000c0 7c 81 ed 3d be 16 3f 3d 73 a1 43 3d 6f 6e 6f bd
       0.11596963 0.046652548 0.04776139 -0.058454927
0000d0 3d 2f 01 3d 70 62 a4 bd a0 fd d2 3a 24 d7 f3 3b
       0.03153919 -0.08026588 0.0016097315 0.0074414182
0000e0 e8 89 83 bd 8a a3 b6 bd d2 52 2b 3c 0e d9 4a bc
       -0.06422788 -0.08917911 0.010456758 -0.012380851
0000f0 2c e0 82 3b 64 bd 92 3d 7a 85 83 bd c6 c3 c8 bc
       0.0039940085 0.0716503 -0.06421943 -0.024507415
000100 28 d6 5d bc a8 40 c1 bd ee 6b 46 3d 65 d4 6a bd
       -0.013539828 -0.0943616 0.048442774 -0.05733146
000110 0b 67 58 3d 93 73 14 bd 91 f9 39 3d f2 d6 e7 3d
       0.052832644 -0.036243033 0.04540402 0.113202944
000120 22 7b 84 bd 25 23 d6 bd a1 2d 57 bd 71 73 3c bd
       -0.06468798 -0.10455922 -0.05253375 -0.04600853
000130 2c a8 3d 3c a9 9b 81 3d 6e 69 89 3c 6e 72 55 3d
       0.01157574 0.06328518 0.016773906 0.05211108
000140 eb 12 d9 3d 34 03 77 3d 1f 6a 81 bd 9d e0 a3 3d
       0.105993114 0.06030579 -0.06319069 0.08001826
000150 b2 c4 b1 3d 23 07 ac bb 73 ef da 3d 43 95 bf bc
       0.08680095 -0.005249874 0.106902026 -0.023386603
000160 81 fc d8 3d be d8 67 bb a0 50 ce 3d a8 a7 8f bb
       0.10595036 -0.003537699 0.10073972 -0.004384
000170 c7 ea b9 bd d0 50 9d 3d 54 a0 58 bd b7 08 e8 3d
       -0.09077983 0.076814294 -0.052887276 0.11329787
000180 e1 a4 8e bd 6b 63 b2 bd 11 4b ac bd c4 7c eb bb
       -0.06965042 -0.08710369 -0.08412755 -0.007186504
000190 ac de bf 3d 56 09 d7 3c 34 40 33 3d bc 39 15 3d
       0.09368643 0.026249569 0.0437624 0.036432013
0001a0 23 da b0 bd 49 65 b0 bd 14 e8 65 bc 6a e2 6d 3d
       -0.08635356 -0.086130686 -0.0140323825 0.058077253
0001b0 e0 42 de 3d 0a 37 af 3d d1 d5 a3 bd ff 0e bb bd
       0.10852599 0.0855542 -0.079997666 -0.0913372
0001c0 9d ed a5 3d 8b 36 71 3d 2f 22 6f 3c 94 0f 83 bd
       0.08101962 0.058889907 0.014595552 -0.06399456
0001d0 af a8 5a 3c e1 81 02 3d 64 ad 52 3d b3 16 c5 bb
       0.013345881 0.031862143 0.05143489 -0.006014669
0001e0 0a e9 54 3d 79 34 d7 3d b6 43 ab ba c5 25 49 bd
       0.051980056 0.10508055 -0.0013066444 -0.049108285
0001f0 8a 35 00 bd dd 16 ad 3d c8 71 fa 3d 08 a7 a1 3c
       -0.03130106 0.084516264 0.12228733 0.019732967
000200 c5 c7 30 bd bd 9e 62 3d a0 c8 ca 3d 8a 27 dc bd
       -0.043159265 0.055327166 0.099015474 -0.10749729
000210 c7 be bd 3d 8a 64 82 bd 7e 23 a6 3d 22 53 95 3c
       0.092649035 -0.063668326 0.08112238 0.018228117
000220 59 8b ae bd 5b a5 49 bd 73 68 a4 3c 58 38 5d 3b
       -0.08522672 -0.04922996 0.020069337 0.0033755507
000230 b0 83 82 bc db 3d 5b bd 88 24 71 bc 5c 5a 57 bd
       -0.015931934 -0.053525787 -0.014718182 -0.052576408
000240 04 8c 42 bd 9a c6 a4 bc 8f 56 39 3b 6b a8 ac 3d
       -0.04749681 -0.020114232 0.0028280353 0.08430561
000250 62 d6 88 bc cb d0 a3 3d c8 f4 97 bd 03 a5 83 3b
       -0.016703788 0.079988085 -0.07419735 0.0040174737
000260 c6 e3 a6 bd c8 5f 1a 3d 07 13 1f bc 08 1f 59 bd
       -0.08148913 0.037689 -0.009709126 -0.05300811
000270 2e 65 7f 3d 97 48 5e 3c fd 40 91 bc ec c2 ed 3d
       0.06235235 0.013567111 -0.017731184 0.11609444
000280 b2 95 62 3c 9f 0b 21 3d e0 31 2d 3c db fc 63 bd
       0.013829635 0.039317723 0.010570973 -0.055661064
000290 3d 9f e8 3d f5 1e 96 3c 53 aa e3 3d 68 05 c0 bd
       0.11358497 0.018325308 0.11116471 -0.09376031
0002a0 ba 83 a3 bd b2 6e ba bc 15 3f aa bd f4 a8 ea bd
       -0.07984109 -0.022757862 -0.08312813 -0.114580065
0002b0 c2 79 35 bd 0a 04 bb bd 06 82 97 3d 5f 0d f3 3d
       -0.04430557 -0.0913163 0.07397847 0.11867785
0002c0 ad 4a 86 bc fa 86 82 bc f4 95 2b bd 48 06 a4 3c
       -0.01639303 -0.015933502 -0.041891053 0.020022526
0002d0 89 b8 84 3c d7 e9 9f 3d 3b ca 8a 3d 69 e1 61 3d
       0.016201274 0.07808273 0.06776854 0.05514661
0002e0 41 2b 92 bc 9d d6 85 3c f8 4f d6 bd b3 34 a8 3c
       -0.01784289 0.016337687 -0.104644716 0.020532941
0002f0 7e 3a dc bb d6 7f 2f 3d da d1 d3 bd e1 f6 3e 3d
       -0.00672084 0.042846523 -0.103427604 0.04662216
000300 6a 8e 7e bc a0 3f 72 3d 96 24 9e bd 35 df a1 bd
       -0.015536884 0.05914271 -0.07721822 -0.079039015
000310 15 1c 69 bd 72 b3 af bc 47 59 64 3c 38 34 92 3d
       -0.056911547 -0.02144787 0.013937301 0.07138866
000320 28 d8 ce 3d a7 ee c7 3d 34 ee 1f bd b4 70 cf bc
       0.10099822 0.09762316 -0.039045528 -0.025322296
000330 29 b8 e6 3c ee 81 88 3d 0d 0c 84 bc 0f a0 10 bd
       0.028163986 0.06665407 -0.016119028 -0.035308894
000340 71 0e 04 bd e4 83 ee 3d f1 88 b4 3d e5 d4 b7 3d
       -0.032240335 0.1164625 0.08815182 0.08976153
000350 ef 91 6c bd 7d 46 e3 bc fe 5d 44 bd 87 49 14 bd
       -0.05775636 -0.027743572 -0.0479412 -0.036202934
000360 fb 2c e5 3d 8c 04 2d bd 9e 65 c9 bd 84 f9 bf bd
       0.1119022 -0.042240664 -0.09833835 -0.09373763
000370 fd 80 73 3d 5f 73 a5 3c f8 af 79 3d e3 37 8d 3d
       0.059449185 0.020196615 0.060958833 0.06895425
000380 f6 b0 b8 bd 78 9b d3 3d 9d c6 b3 3d 0f 71 fe b9
       -0.090181276 0.10332388 0.08778117 -0.0004853089
000390 55 d8 8c 3c fb f7 7a 3d f2 49 c9 3d 46 d7 6a bd
       0.017192999 0.06127165 0.09828557 -0.057334207
0003a0 17 c2 50 3d 65 7e 7f bc 9e c0 20 b9 c0 d2 5e 3c
       0.05096635 -0.0155941 -0.00015330545 0.013600051
0003b0 58 37 03 bd 02 5d ad 3d 80 58 b7 bd 66 89 5b bd
       -0.0320352 0.084650055 -0.08952427 -0.05359783
0003c0 19 12 32 3c 7b c9 29 3d 33 db b1 3d dc 94 35 bd
       0.010868573 0.041451912 0.08684387 -0.044331416
0003d0 e7 da 57 3d 26 57 a3 3d b5 e9 92 bd 39 a7 b3 3d
       0.052698996 0.079756066 -0.07173482 0.087721296
0003e0 bc cb aa 3d af c8 25 3a 4f 50 f1 3d 0c d1 cb bd
       0.083396405 0.00063241547 0.11782896 -0.09951982
0003f0 e6 30 f0 3d 54 ac 96 3d 69 5c 84 bc a6 e6 be 3d
       0.11728077 0.07357088 -0.016157346 0.093213364
